…
I0801 14:28:24.267933 26497 solver.cpp:77] Creating training net from train_net file: ./Experiments/group_1/exp_3/train.prototxt
I0801 14:28:24.268548 26497 net.cpp:55] Initializing net from parameters: 
state {
  phase: TRAIN
  level: 0
  stage: ""
}
layer {
  name: "data"
  type: "ImageData"
  top: "data"
  top: "label"
  transform_param {
    scale: 0.0039215689
    mirror: false
    crop_size: 32
    mean_value: 120
    mean_value: 115
    mean_value: 115
  }
  image_data_param {
    source: "./Experiments/group_1/exp_3/gt_train.txt"
    batch_size: 1024
    new_height: 40
    new_width: 40
    root_folder: "./local_data/RTSD/train/"
  }
}
layer {
  name: "BatchNorm1"
  type: "BatchNorm"
  bottom: "data"
  top: "BatchNorm1"
  batch_norm_param {
    use_global_stats: false
  }
}
layer {
  name: "ReLU1"
  type: "ReLU"
  bottom: "BatchNorm1"
  top: "BatchNorm1"
  relu_param {
    engine: CAFFE
  }
}
layer {
  name: "conv1"
  type: "Convolution"
  bottom: "BatchNorm1"
  top: "conv1"
  convolution_param {
    num_output: 16
    pad: 1
    kernel_size: 3
    group: 1
    stride: 1
    weight_filler {
      type: "xavier"
    }
    engine: CAFFE
  }
}
layer {
  name: "BatchNorm2"
  type: "BatchNorm"
  bottom: "conv1"
  top: "BatchNorm2"
  batch_norm_param {
    use_global_stats: false
  }
}
layer {
  name: "ReLU2"
  type: "ReLU"
  bottom: "BatchNorm2"
  top: "BatchNorm2"
  relu_param {
    engine: CAFFE
  }
}
layer {
  name: "conv2_b1_c1"
  type: "Convolution"
  bottom: "BatchNorm2"
  top: "Convolution1"
  convolution_param {
    num_output: 16
    pad: 1
    kernel_size: 3
    group: 1
    stride: 1
    weight_filler {
      type: "xavier"
    }
    engine: CAFFE
  }
}
layer {
  name: "BatchNorm3"
  type: "BatchNorm"
  bottom: "Convolution1"
  top: "BatchNorm3"
  batch_norm_param {
    use_global_stats: false
  }
}
layer {
  name: "ReLU3"
  type: "ReLU"
  bottom: "BatchNorm3"
  top: "BatchNorm3"
  relu_param {
    engine: CAFFE
  }
}
layer {
  name: "conv2_b1_c2"
  type: "Convolution"
  bottom: "BatchNorm3"
  top: "Convolution2"
  convolution_param {
    num_output: 16
    pad: 1
    kernel_size: 3
    group: 1
    stride: 1
    weight_filler {
      type: "xavier"
    }
    engine: CAFFE
  }
}
layer {
  name: "conv2_b1_sum"
  type: "Eltwise"
  bottom: "conv1"
  bottom: "Convolution2"
  top: "conv2"
  eltwise_param {
    operation: SUM
  }
}
layer {
  name: "conv3_shortcut"
  type: "Convolution"
  bottom: "conv2"
  top: "Convolution3"
  convolution_param {
    num_output: 32
    pad: 0
    kernel_size: 1
    group: 1
    stride: 2
    weight_filler {
      type: "xavier"
    }
    engine: CAFFE
  }
}
layer {
  name: "BatchNorm4"
  type: "BatchNorm"
  bottom: "conv2"
  top: "BatchNorm4"
  batch_norm_param {
    use_global_stats: false
  }
}
layer {
  name: "ReLU4"
  type: "ReLU"
  bottom: "BatchNorm4"
  top: "BatchNorm4"
  relu_param {
    engine: CAFFE
  }
}
layer {
  name: "conv3_b1_c1"
  type: "Convolution"
  bottom: "BatchNorm4"
  top: "Convolution4"
  convolution_param {
    num_output: 32
    pad: 1
    kernel_size: 3
    group: 1
    stride: 2
    weight_filler {
      type: "xavier"
    }
    engine: CAFFE
  }
}
layer {
  name: "BatchNorm5"
  type: "BatchNorm"
  bottom: "Convolution4"
  top: "BatchNorm5"
  batch_norm_param {
    use_global_stats: false
  }
}
layer {
  name: "ReLU5"
  type: "ReLU"
  bottom: "BatchNorm5"
  top: "BatchNorm5"
  relu_param {
    engine: CAFFE
  }
}
layer {
  name: "conv3_b1_c2"
  type: "Convolution"
  bottom: "BatchNorm5"
  top: "Convolution5"
  convolution_param {
    num_output: 32
    pad: 1
    kernel_size: 3
    group: 1
    stride: 1
    weight_filler {
      type: "xavier"
    }
    engine: CAFFE
  }
}
layer {
  name: "conv3_b1_sum"
  type: "Eltwise"
  bottom: "Convolution3"
  bottom: "Convolution5"
  top: "conv3"
  eltwise_param {
    operation: SUM
  }
}
layer {
  name: "conv4_shortcut"
  type: "Convolution"
  bottom: "conv3"
  top: "Convolution6"
  convolution_param {
    num_output: 64
    pad: 0
    kernel_size: 1
    group: 1
    stride: 2
    weight_filler {
      type: "xavier"
    }
    engine: CAFFE
  }
}
layer {
  name: "BatchNorm6"
  type: "BatchNorm"
  bottom: "conv3"
  top: "BatchNorm6"
  batch_norm_param {
    use_global_stats: false
  }
}
layer {
  name: "ReLU6"
  type: "ReLU"
  bottom: "BatchNorm6"
  top: "BatchNorm6"
  relu_param {
    engine: CAFFE
  }
}
layer {
  name: "conv4_b1_c1"
  type: "Convolution"
  bottom: "BatchNorm6"
  top: "Convolution7"
  convolution_param {
    num_output: 64
    pad: 1
    kernel_size: 3
    group: 1
    stride: 2
    weight_filler {
      type: "xavier"
    }
    engine: CAFFE
  }
}
layer {
  name: "BatchNorm7"
  type: "BatchNorm"
  bottom: "Convolution7"
  top: "BatchNorm7"
  batch_norm_param {
    use_global_stats: false
  }
}
layer {
  name: "ReLU7"
  type: "ReLU"
  bottom: "BatchNorm7"
  top: "BatchNorm7"
  relu_param {
    engine: CAFFE
  }
}
layer {
  name: "conv4_b1_c2"
  type: "Convolution"
  bottom: "BatchNorm7"
  top: "Convolution8"
  convolution_param {
    num_output: 64
    pad: 1
    kernel_size: 3
    group: 1
    stride: 1
    weight_filler {
      type: "xavier"
    }
    engine: CAFFE
  }
}
layer {
  name: "conv4_b1_sum"
  type: "Eltwise"
  bottom: "Convolution6"
  bottom: "Convolution8"
  top: "conv4"
  eltwise_param {
    operation: SUM
  }
}
layer {
  name: "BatchNorm8"
  type: "BatchNorm"
  bottom: "conv4"
  top: "BatchNorm8"
  batch_norm_param {
    use_global_stats: false
  }
}
layer {
  name: "ReLU8"
  type: "ReLU"
  bottom: "BatchNorm8"
  top: "BatchNorm8"
}
layer {
  name: "avg_pool"
  type: "Pooling"
  bottom: "BatchNorm8"
  top: "avg_pool"
  pooling_param {
    kernel_size: 8
    stride: 1
  }
}
layer {
  name: "fc"
  type: "InnerProduct"
  bottom: "avg_pool"
  top: "fc"
  inner_product_param {
    num_output: 51
    weight_filler {
      type: "xavier"
    }
  }
}
layer {
  name: "loss"
  type: "SoftmaxWithLoss"
  bottom: "fc"
  bottom: "label"
  top: "loss"
}
I0801 14:28:24.268755 26497 layer_factory.hpp:77] Creating layer data
I0801 14:28:24.268790 26497 net.cpp:88] Creating Layer data
I0801 14:28:24.268798 26497 net.cpp:384] data -> data
I0801 14:28:24.268821 26497 net.cpp:384] data -> label
I0801 14:28:24.269259 26497 image_data_layer.cpp:38] Opening file ./Experiments/group_1/exp_3/gt_train.txt
I0801 14:28:24.288349 26497 image_data_layer.cpp:63] A total of 69205 images.
I0801 14:28:24.293690 26497 image_data_layer.cpp:90] output data size: 1024,3,32,32
I0801 14:28:24.345302 26497 net.cpp:126] Setting up data
I0801 14:28:24.345336 26497 net.cpp:133] Top shape: 1024 3 32 32 (3145728)
I0801 14:28:24.345343 26497 net.cpp:133] Top shape: 1024 (1024)
I0801 14:28:24.345347 26497 net.cpp:141] Memory required for data: 12587008
I0801 14:28:24.345356 26497 layer_factory.hpp:77] Creating layer BatchNorm1
I0801 14:28:24.345374 26497 net.cpp:88] Creating Layer BatchNorm1
I0801 14:28:24.345383 26497 net.cpp:410] BatchNorm1 <- data
I0801 14:28:24.345397 26497 net.cpp:384] BatchNorm1 -> BatchNorm1
I0801 14:28:24.346050 26497 net.cpp:126] Setting up BatchNorm1
I0801 14:28:24.346070 26497 net.cpp:133] Top shape: 1024 3 32 32 (3145728)
I0801 14:28:24.346073 26497 net.cpp:141] Memory required for data: 25169920
I0801 14:28:24.346098 26497 layer_factory.hpp:77] Creating layer ReLU1
I0801 14:28:24.346113 26497 net.cpp:88] Creating Layer ReLU1
I0801 14:28:24.346119 26497 net.cpp:410] ReLU1 <- BatchNorm1
I0801 14:28:24.346125 26497 net.cpp:371] ReLU1 -> BatchNorm1 (in-place)
I0801 14:28:24.346143 26497 net.cpp:126] Setting up ReLU1
I0801 14:28:24.346154 26497 net.cpp:133] Top shape: 1024 3 32 32 (3145728)
I0801 14:28:24.346184 26497 net.cpp:141] Memory required for data: 37752832
I0801 14:28:24.346189 26497 layer_factory.hpp:77] Creating layer conv1
I0801 14:28:24.346205 26497 net.cpp:88] Creating Layer conv1
I0801 14:28:24.346213 26497 net.cpp:410] conv1 <- BatchNorm1
I0801 14:28:24.346221 26497 net.cpp:384] conv1 -> conv1
I0801 14:28:24.346500 26497 net.cpp:126] Setting up conv1
I0801 14:28:24.346514 26497 net.cpp:133] Top shape: 1024 16 32 32 (16777216)
I0801 14:28:24.346518 26497 net.cpp:141] Memory required for data: 104861696
I0801 14:28:24.346529 26497 layer_factory.hpp:77] Creating layer conv1_conv1_0_split
I0801 14:28:24.346541 26497 net.cpp:88] Creating Layer conv1_conv1_0_split
I0801 14:28:24.346546 26497 net.cpp:410] conv1_conv1_0_split <- conv1
I0801 14:28:24.346552 26497 net.cpp:384] conv1_conv1_0_split -> conv1_conv1_0_split_0
I0801 14:28:24.346561 26497 net.cpp:384] conv1_conv1_0_split -> conv1_conv1_0_split_1
I0801 14:28:24.346601 26497 net.cpp:126] Setting up conv1_conv1_0_split
I0801 14:28:24.346609 26497 net.cpp:133] Top shape: 1024 16 32 32 (16777216)
I0801 14:28:24.346614 26497 net.cpp:133] Top shape: 1024 16 32 32 (16777216)
I0801 14:28:24.346622 26497 net.cpp:141] Memory required for data: 239079424
I0801 14:28:24.346626 26497 layer_factory.hpp:77] Creating layer BatchNorm2
I0801 14:28:24.346633 26497 net.cpp:88] Creating Layer BatchNorm2
I0801 14:28:24.346637 26497 net.cpp:410] BatchNorm2 <- conv1_conv1_0_split_0
I0801 14:28:24.346643 26497 net.cpp:384] BatchNorm2 -> BatchNorm2
I0801 14:28:24.346843 26497 net.cpp:126] Setting up BatchNorm2
I0801 14:28:24.346858 26497 net.cpp:133] Top shape: 1024 16 32 32 (16777216)
I0801 14:28:24.346861 26497 net.cpp:141] Memory required for data: 306188288
I0801 14:28:24.346871 26497 layer_factory.hpp:77] Creating layer ReLU2
I0801 14:28:24.346881 26497 net.cpp:88] Creating Layer ReLU2
I0801 14:28:24.346886 26497 net.cpp:410] ReLU2 <- BatchNorm2
I0801 14:28:24.346891 26497 net.cpp:371] ReLU2 -> BatchNorm2 (in-place)
I0801 14:28:24.346899 26497 net.cpp:126] Setting up ReLU2
I0801 14:28:24.346909 26497 net.cpp:133] Top shape: 1024 16 32 32 (16777216)
I0801 14:28:24.346912 26497 net.cpp:141] Memory required for data: 373297152
I0801 14:28:24.346916 26497 layer_factory.hpp:77] Creating layer conv2_b1_c1
I0801 14:28:24.346925 26497 net.cpp:88] Creating Layer conv2_b1_c1
I0801 14:28:24.346930 26497 net.cpp:410] conv2_b1_c1 <- BatchNorm2
I0801 14:28:24.346937 26497 net.cpp:384] conv2_b1_c1 -> Convolution1
I0801 14:28:24.350306 26497 net.cpp:126] Setting up conv2_b1_c1
I0801 14:28:24.350329 26497 net.cpp:133] Top shape: 1024 16 32 32 (16777216)
I0801 14:28:24.350333 26497 net.cpp:141] Memory required for data: 440406016
I0801 14:28:24.350345 26497 layer_factory.hpp:77] Creating layer BatchNorm3
I0801 14:28:24.350360 26497 net.cpp:88] Creating Layer BatchNorm3
I0801 14:28:24.350368 26497 net.cpp:410] BatchNorm3 <- Convolution1
I0801 14:28:24.350374 26497 net.cpp:384] BatchNorm3 -> BatchNorm3
I0801 14:28:24.350587 26497 net.cpp:126] Setting up BatchNorm3
I0801 14:28:24.350600 26497 net.cpp:133] Top shape: 1024 16 32 32 (16777216)
I0801 14:28:24.350603 26497 net.cpp:141] Memory required for data: 507514880
I0801 14:28:24.350612 26497 layer_factory.hpp:77] Creating layer ReLU3
I0801 14:28:24.350620 26497 net.cpp:88] Creating Layer ReLU3
I0801 14:28:24.350623 26497 net.cpp:410] ReLU3 <- BatchNorm3
I0801 14:28:24.350630 26497 net.cpp:371] ReLU3 -> BatchNorm3 (in-place)
I0801 14:28:24.350636 26497 net.cpp:126] Setting up ReLU3
I0801 14:28:24.350641 26497 net.cpp:133] Top shape: 1024 16 32 32 (16777216)
I0801 14:28:24.350644 26497 net.cpp:141] Memory required for data: 574623744
I0801 14:28:24.350648 26497 layer_factory.hpp:77] Creating layer conv2_b1_c2
I0801 14:28:24.350656 26497 net.cpp:88] Creating Layer conv2_b1_c2
I0801 14:28:24.350661 26497 net.cpp:410] conv2_b1_c2 <- BatchNorm3
I0801 14:28:24.350666 26497 net.cpp:384] conv2_b1_c2 -> Convolution2
I0801 14:28:24.350919 26497 net.cpp:126] Setting up conv2_b1_c2
I0801 14:28:24.350936 26497 net.cpp:133] Top shape: 1024 16 32 32 (16777216)
I0801 14:28:24.350955 26497 net.cpp:141] Memory required for data: 641732608
I0801 14:28:24.350965 26497 layer_factory.hpp:77] Creating layer conv2_b1_sum
I0801 14:28:24.350972 26497 net.cpp:88] Creating Layer conv2_b1_sum
I0801 14:28:24.350976 26497 net.cpp:410] conv2_b1_sum <- conv1_conv1_0_split_1
I0801 14:28:24.350982 26497 net.cpp:410] conv2_b1_sum <- Convolution2
I0801 14:28:24.350988 26497 net.cpp:384] conv2_b1_sum -> conv2
I0801 14:28:24.351022 26497 net.cpp:126] Setting up conv2_b1_sum
I0801 14:28:24.351035 26497 net.cpp:133] Top shape: 1024 16 32 32 (16777216)
I0801 14:28:24.351039 26497 net.cpp:141] Memory required for data: 708841472
I0801 14:28:24.351043 26497 layer_factory.hpp:77] Creating layer conv2_conv2_b1_sum_0_split
I0801 14:28:24.351049 26497 net.cpp:88] Creating Layer conv2_conv2_b1_sum_0_split
I0801 14:28:24.351053 26497 net.cpp:410] conv2_conv2_b1_sum_0_split <- conv2
I0801 14:28:24.351060 26497 net.cpp:384] conv2_conv2_b1_sum_0_split -> conv2_conv2_b1_sum_0_split_0
I0801 14:28:24.351068 26497 net.cpp:384] conv2_conv2_b1_sum_0_split -> conv2_conv2_b1_sum_0_split_1
I0801 14:28:24.351105 26497 net.cpp:126] Setting up conv2_conv2_b1_sum_0_split
I0801 14:28:24.351116 26497 net.cpp:133] Top shape: 1024 16 32 32 (16777216)
I0801 14:28:24.351121 26497 net.cpp:133] Top shape: 1024 16 32 32 (16777216)
I0801 14:28:24.351125 26497 net.cpp:141] Memory required for data: 843059200
I0801 14:28:24.351128 26497 layer_factory.hpp:77] Creating layer conv3_shortcut
I0801 14:28:24.351137 26497 net.cpp:88] Creating Layer conv3_shortcut
I0801 14:28:24.351142 26497 net.cpp:410] conv3_shortcut <- conv2_conv2_b1_sum_0_split_0
I0801 14:28:24.351148 26497 net.cpp:384] conv3_shortcut -> Convolution3
I0801 14:28:24.351392 26497 net.cpp:126] Setting up conv3_shortcut
I0801 14:28:24.351404 26497 net.cpp:133] Top shape: 1024 32 16 16 (8388608)
I0801 14:28:24.351408 26497 net.cpp:141] Memory required for data: 876613632
I0801 14:28:24.351418 26497 layer_factory.hpp:77] Creating layer BatchNorm4
I0801 14:28:24.351425 26497 net.cpp:88] Creating Layer BatchNorm4
I0801 14:28:24.351429 26497 net.cpp:410] BatchNorm4 <- conv2_conv2_b1_sum_0_split_1
I0801 14:28:24.351435 26497 net.cpp:384] BatchNorm4 -> BatchNorm4
I0801 14:28:24.351640 26497 net.cpp:126] Setting up BatchNorm4
I0801 14:28:24.351649 26497 net.cpp:133] Top shape: 1024 16 32 32 (16777216)
I0801 14:28:24.351651 26497 net.cpp:141] Memory required for data: 943722496
I0801 14:28:24.351660 26497 layer_factory.hpp:77] Creating layer ReLU4
I0801 14:28:24.351666 26497 net.cpp:88] Creating Layer ReLU4
I0801 14:28:24.351671 26497 net.cpp:410] ReLU4 <- BatchNorm4
I0801 14:28:24.351676 26497 net.cpp:371] ReLU4 -> BatchNorm4 (in-place)
I0801 14:28:24.351683 26497 net.cpp:126] Setting up ReLU4
I0801 14:28:24.351688 26497 net.cpp:133] Top shape: 1024 16 32 32 (16777216)
I0801 14:28:24.351691 26497 net.cpp:141] Memory required for data: 1010831360
I0801 14:28:24.351696 26497 layer_factory.hpp:77] Creating layer conv3_b1_c1
I0801 14:28:24.351706 26497 net.cpp:88] Creating Layer conv3_b1_c1
I0801 14:28:24.351709 26497 net.cpp:410] conv3_b1_c1 <- BatchNorm4
I0801 14:28:24.351716 26497 net.cpp:384] conv3_b1_c1 -> Convolution4
I0801 14:28:24.356950 26497 net.cpp:126] Setting up conv3_b1_c1
I0801 14:28:24.356971 26497 net.cpp:133] Top shape: 1024 32 16 16 (8388608)
I0801 14:28:24.356976 26497 net.cpp:141] Memory required for data: 1044385792
I0801 14:28:24.356983 26497 layer_factory.hpp:77] Creating layer BatchNorm5
I0801 14:28:24.356992 26497 net.cpp:88] Creating Layer BatchNorm5
I0801 14:28:24.356997 26497 net.cpp:410] BatchNorm5 <- Convolution4
I0801 14:28:24.357003 26497 net.cpp:384] BatchNorm5 -> BatchNorm5
I0801 14:28:24.357218 26497 net.cpp:126] Setting up BatchNorm5
I0801 14:28:24.357230 26497 net.cpp:133] Top shape: 1024 32 16 16 (8388608)
I0801 14:28:24.357234 26497 net.cpp:141] Memory required for data: 1077940224
I0801 14:28:24.357244 26497 layer_factory.hpp:77] Creating layer ReLU5
I0801 14:28:24.357251 26497 net.cpp:88] Creating Layer ReLU5
I0801 14:28:24.357270 26497 net.cpp:410] ReLU5 <- BatchNorm5
I0801 14:28:24.357277 26497 net.cpp:371] ReLU5 -> BatchNorm5 (in-place)
I0801 14:28:24.357285 26497 net.cpp:126] Setting up ReLU5
I0801 14:28:24.357290 26497 net.cpp:133] Top shape: 1024 32 16 16 (8388608)
I0801 14:28:24.357295 26497 net.cpp:141] Memory required for data: 1111494656
I0801 14:28:24.357297 26497 layer_factory.hpp:77] Creating layer conv3_b1_c2
I0801 14:28:24.357306 26497 net.cpp:88] Creating Layer conv3_b1_c2
I0801 14:28:24.357311 26497 net.cpp:410] conv3_b1_c2 <- BatchNorm5
I0801 14:28:24.357317 26497 net.cpp:384] conv3_b1_c2 -> Convolution5
I0801 14:28:24.357653 26497 net.cpp:126] Setting up conv3_b1_c2
I0801 14:28:24.357666 26497 net.cpp:133] Top shape: 1024 32 16 16 (8388608)
I0801 14:28:24.357671 26497 net.cpp:141] Memory required for data: 1145049088
I0801 14:28:24.357677 26497 layer_factory.hpp:77] Creating layer conv3_b1_sum
I0801 14:28:24.357684 26497 net.cpp:88] Creating Layer conv3_b1_sum
I0801 14:28:24.357688 26497 net.cpp:410] conv3_b1_sum <- Convolution3
I0801 14:28:24.357693 26497 net.cpp:410] conv3_b1_sum <- Convolution5
I0801 14:28:24.357699 26497 net.cpp:384] conv3_b1_sum -> conv3
I0801 14:28:24.358750 26497 net.cpp:126] Setting up conv3_b1_sum
I0801 14:28:24.358765 26497 net.cpp:133] Top shape: 1024 32 16 16 (8388608)
I0801 14:28:24.358768 26497 net.cpp:141] Memory required for data: 1178603520
I0801 14:28:24.358772 26497 layer_factory.hpp:77] Creating layer conv3_conv3_b1_sum_0_split
I0801 14:28:24.358780 26497 net.cpp:88] Creating Layer conv3_conv3_b1_sum_0_split
I0801 14:28:24.358785 26497 net.cpp:410] conv3_conv3_b1_sum_0_split <- conv3
I0801 14:28:24.358791 26497 net.cpp:384] conv3_conv3_b1_sum_0_split -> conv3_conv3_b1_sum_0_split_0
I0801 14:28:24.358799 26497 net.cpp:384] conv3_conv3_b1_sum_0_split -> conv3_conv3_b1_sum_0_split_1
I0801 14:28:24.358885 26497 net.cpp:126] Setting up conv3_conv3_b1_sum_0_split
I0801 14:28:24.358898 26497 net.cpp:133] Top shape: 1024 32 16 16 (8388608)
I0801 14:28:24.358904 26497 net.cpp:133] Top shape: 1024 32 16 16 (8388608)
I0801 14:28:24.360190 26497 net.cpp:141] Memory required for data: 1245712384
I0801 14:28:24.360203 26497 layer_factory.hpp:77] Creating layer conv4_shortcut
I0801 14:28:24.360216 26497 net.cpp:88] Creating Layer conv4_shortcut
I0801 14:28:24.360221 26497 net.cpp:410] conv4_shortcut <- conv3_conv3_b1_sum_0_split_0
I0801 14:28:24.360232 26497 net.cpp:384] conv4_shortcut -> Convolution6
I0801 14:28:24.360546 26497 net.cpp:126] Setting up conv4_shortcut
I0801 14:28:24.360561 26497 net.cpp:133] Top shape: 1024 64 8 8 (4194304)
I0801 14:28:24.360601 26497 net.cpp:141] Memory required for data: 1262489600
I0801 14:28:24.360611 26497 layer_factory.hpp:77] Creating layer BatchNorm6
I0801 14:28:24.360621 26497 net.cpp:88] Creating Layer BatchNorm6
I0801 14:28:24.360627 26497 net.cpp:410] BatchNorm6 <- conv3_conv3_b1_sum_0_split_1
I0801 14:28:24.360635 26497 net.cpp:384] BatchNorm6 -> BatchNorm6
I0801 14:28:24.360853 26497 net.cpp:126] Setting up BatchNorm6
I0801 14:28:24.360865 26497 net.cpp:133] Top shape: 1024 32 16 16 (8388608)
I0801 14:28:24.360869 26497 net.cpp:141] Memory required for data: 1296044032
I0801 14:28:24.360878 26497 layer_factory.hpp:77] Creating layer ReLU6
I0801 14:28:24.360888 26497 net.cpp:88] Creating Layer ReLU6
I0801 14:28:24.360893 26497 net.cpp:410] ReLU6 <- BatchNorm6
I0801 14:28:24.360899 26497 net.cpp:371] ReLU6 -> BatchNorm6 (in-place)
I0801 14:28:24.360906 26497 net.cpp:126] Setting up ReLU6
I0801 14:28:24.360914 26497 net.cpp:133] Top shape: 1024 32 16 16 (8388608)
I0801 14:28:24.360918 26497 net.cpp:141] Memory required for data: 1329598464
I0801 14:28:24.360920 26497 layer_factory.hpp:77] Creating layer conv4_b1_c1
I0801 14:28:24.360929 26497 net.cpp:88] Creating Layer conv4_b1_c1
I0801 14:28:24.360935 26497 net.cpp:410] conv4_b1_c1 <- BatchNorm6
I0801 14:28:24.360941 26497 net.cpp:384] conv4_b1_c1 -> Convolution7
I0801 14:28:24.363767 26497 net.cpp:126] Setting up conv4_b1_c1
I0801 14:28:24.363788 26497 net.cpp:133] Top shape: 1024 64 8 8 (4194304)
I0801 14:28:24.363811 26497 net.cpp:141] Memory required for data: 1346375680
I0801 14:28:24.363826 26497 layer_factory.hpp:77] Creating layer BatchNorm7
I0801 14:28:24.363837 26497 net.cpp:88] Creating Layer BatchNorm7
I0801 14:28:24.363843 26497 net.cpp:410] BatchNorm7 <- Convolution7
I0801 14:28:24.363850 26497 net.cpp:384] BatchNorm7 -> BatchNorm7
I0801 14:28:24.364071 26497 net.cpp:126] Setting up BatchNorm7
I0801 14:28:24.364082 26497 net.cpp:133] Top shape: 1024 64 8 8 (4194304)
I0801 14:28:24.364086 26497 net.cpp:141] Memory required for data: 1363152896
I0801 14:28:24.364096 26497 layer_factory.hpp:77] Creating layer ReLU7
I0801 14:28:24.364105 26497 net.cpp:88] Creating Layer ReLU7
I0801 14:28:24.364111 26497 net.cpp:410] ReLU7 <- BatchNorm7
I0801 14:28:24.364117 26497 net.cpp:371] ReLU7 -> BatchNorm7 (in-place)
I0801 14:28:24.364126 26497 net.cpp:126] Setting up ReLU7
I0801 14:28:24.364135 26497 net.cpp:133] Top shape: 1024 64 8 8 (4194304)
I0801 14:28:24.364137 26497 net.cpp:141] Memory required for data: 1379930112
I0801 14:28:24.364141 26497 layer_factory.hpp:77] Creating layer conv4_b1_c2
I0801 14:28:24.364151 26497 net.cpp:88] Creating Layer conv4_b1_c2
I0801 14:28:24.364156 26497 net.cpp:410] conv4_b1_c2 <- BatchNorm7
I0801 14:28:24.364162 26497 net.cpp:384] conv4_b1_c2 -> Convolution8
I0801 14:28:24.364675 26497 net.cpp:126] Setting up conv4_b1_c2
I0801 14:28:24.364688 26497 net.cpp:133] Top shape: 1024 64 8 8 (4194304)
I0801 14:28:24.364692 26497 net.cpp:141] Memory required for data: 1396707328
I0801 14:28:24.364699 26497 layer_factory.hpp:77] Creating layer conv4_b1_sum
I0801 14:28:24.364709 26497 net.cpp:88] Creating Layer conv4_b1_sum
I0801 14:28:24.364715 26497 net.cpp:410] conv4_b1_sum <- Convolution6
I0801 14:28:24.364720 26497 net.cpp:410] conv4_b1_sum <- Convolution8
I0801 14:28:24.364727 26497 net.cpp:384] conv4_b1_sum -> conv4
I0801 14:28:24.364754 26497 net.cpp:126] Setting up conv4_b1_sum
I0801 14:28:24.364764 26497 net.cpp:133] Top shape: 1024 64 8 8 (4194304)
I0801 14:28:24.364768 26497 net.cpp:141] Memory required for data: 1413484544
I0801 14:28:24.364771 26497 layer_factory.hpp:77] Creating layer BatchNorm8
I0801 14:28:24.364778 26497 net.cpp:88] Creating Layer BatchNorm8
I0801 14:28:24.364785 26497 net.cpp:410] BatchNorm8 <- conv4
I0801 14:28:24.364791 26497 net.cpp:384] BatchNorm8 -> BatchNorm8
I0801 14:28:24.365008 26497 net.cpp:126] Setting up BatchNorm8
I0801 14:28:24.365020 26497 net.cpp:133] Top shape: 1024 64 8 8 (4194304)
I0801 14:28:24.365023 26497 net.cpp:141] Memory required for data: 1430261760
I0801 14:28:24.365032 26497 layer_factory.hpp:77] Creating layer ReLU8
I0801 14:28:24.365041 26497 net.cpp:88] Creating Layer ReLU8
I0801 14:28:24.365044 26497 net.cpp:410] ReLU8 <- BatchNorm8
I0801 14:28:24.365049 26497 net.cpp:371] ReLU8 -> BatchNorm8 (in-place)
I0801 14:28:24.365058 26497 net.cpp:126] Setting up ReLU8
I0801 14:28:24.365063 26497 net.cpp:133] Top shape: 1024 64 8 8 (4194304)
I0801 14:28:24.365068 26497 net.cpp:141] Memory required for data: 1447038976
I0801 14:28:24.365072 26497 layer_factory.hpp:77] Creating layer avg_pool
I0801 14:28:24.365083 26497 net.cpp:88] Creating Layer avg_pool
I0801 14:28:24.365090 26497 net.cpp:410] avg_pool <- BatchNorm8
I0801 14:28:24.365095 26497 net.cpp:384] avg_pool -> avg_pool
I0801 14:28:24.365149 26497 net.cpp:126] Setting up avg_pool
I0801 14:28:24.365159 26497 net.cpp:133] Top shape: 1024 64 1 1 (65536)
I0801 14:28:24.365164 26497 net.cpp:141] Memory required for data: 1447301120
I0801 14:28:24.365167 26497 layer_factory.hpp:77] Creating layer fc
I0801 14:28:24.365175 26497 net.cpp:88] Creating Layer fc
I0801 14:28:24.365180 26497 net.cpp:410] fc <- avg_pool
I0801 14:28:24.365185 26497 net.cpp:384] fc -> fc
I0801 14:28:24.365324 26497 net.cpp:126] Setting up fc
I0801 14:28:24.365334 26497 net.cpp:133] Top shape: 1024 51 (52224)
I0801 14:28:24.365337 26497 net.cpp:141] Memory required for data: 1447510016
I0801 14:28:24.365345 26497 layer_factory.hpp:77] Creating layer loss
I0801 14:28:24.365351 26497 net.cpp:88] Creating Layer loss
I0801 14:28:24.365370 26497 net.cpp:410] loss <- fc
I0801 14:28:24.365376 26497 net.cpp:410] loss <- label
I0801 14:28:24.365384 26497 net.cpp:384] loss -> loss
I0801 14:28:24.365402 26497 layer_factory.hpp:77] Creating layer loss
…
I0801 14:28:24.366159 26497 solver.cpp:172] Creating test net (#0) specified by test_net file: ./Experiments/group_1/exp_3/val.prototxt
I0801 14:28:24.366430 26497 net.cpp:55] Initializing net from parameters: 
state {
  phase: TEST
}
layer {
  name: "data"
  type: "ImageData"
  top: "data"
  top: "label"
  transform_param {
    scale: 0.0039215689
    mirror: false
    crop_size: 32
    mean_value: 118
    mean_value: 114
    mean_value: 114
  }
  image_data_param {
    source: "./Experiments/group_1/exp_3/gt_val.txt"
    batch_size: 1024
    new_height: 40
    new_width: 40
    root_folder: "./local_data/RTSD/val/"
  }
}
layer {
  name: "BatchNorm1"
  type: "BatchNorm"
  bottom: "data"
  top: "BatchNorm1"
  batch_norm_param {
    use_global_stats: false
  }
}
layer {
  name: "ReLU1"
  type: "ReLU"
  bottom: "BatchNorm1"
  top: "BatchNorm1"
  relu_param {
    engine: CAFFE
  }
}
layer {
  name: "conv1"
  type: "Convolution"
  bottom: "BatchNorm1"
  top: "conv1"
  convolution_param {
    num_output: 16
    pad: 1
    kernel_size: 3
    group: 1
    stride: 1
    weight_filler {
      type: "xavier"
    }
    engine: CAFFE
  }
}
layer {
  name: "BatchNorm2"
  type: "BatchNorm"
  bottom: "conv1"
  top: "BatchNorm2"
  batch_norm_param {
    use_global_stats: false
  }
}
layer {
  name: "ReLU2"
  type: "ReLU"
  bottom: "BatchNorm2"
  top: "BatchNorm2"
  relu_param {
    engine: CAFFE
  }
}
layer {
  name: "conv2_b1_c1"
  type: "Convolution"
  bottom: "BatchNorm2"
  top: "Convolution1"
  convolution_param {
    num_output: 16
    pad: 1
    kernel_size: 3
    group: 1
    stride: 1
    weight_filler {
      type: "xavier"
    }
    engine: CAFFE
  }
}
layer {
  name: "BatchNorm3"
  type: "BatchNorm"
  bottom: "Convolution1"
  top: "BatchNorm3"
  batch_norm_param {
    use_global_stats: false
  }
}
layer {
  name: "ReLU3"
  type: "ReLU"
  bottom: "BatchNorm3"
  top: "BatchNorm3"
  relu_param {
    engine: CAFFE
  }
}
layer {
  name: "conv2_b1_c2"
  type: "Convolution"
  bottom: "BatchNorm3"
  top: "Convolution2"
  convolution_param {
    num_output: 16
    pad: 1
    kernel_size: 3
    group: 1
    stride: 1
    weight_filler {
      type: "xavier"
    }
    engine: CAFFE
  }
}
layer {
  name: "conv2_b1_sum"
  type: "Eltwise"
  bottom: "conv1"
  bottom: "Convolution2"
  top: "conv2"
  eltwise_param {
    operation: SUM
  }
}
layer {
  name: "conv3_shortcut"
  type: "Convolution"
  bottom: "conv2"
  top: "Convolution3"
  convolution_param {
    num_output: 32
    pad: 0
    kernel_size: 1
    group: 1
    stride: 2
    weight_filler {
      type: "xavier"
    }
    engine: CAFFE
  }
}
layer {
  name: "BatchNorm4"
  type: "BatchNorm"
  bottom: "conv2"
  top: "BatchNorm4"
  batch_norm_param {
    use_global_stats: false
  }
}
layer {
  name: "ReLU4"
  type: "ReLU"
  bottom: "BatchNorm4"
  top: "BatchNorm4"
  relu_param {
    engine: CAFFE
  }
}
layer {
  name: "conv3_b1_c1"
  type: "Convolution"
  bottom: "BatchNorm4"
  top: "Convolution4"
  convolution_param {
    num_output: 32
    pad: 1
    kernel_size: 3
    group: 1
    stride: 2
    weight_filler {
      type: "xavier"
    }
    engine: CAFFE
  }
}
layer {
  name: "BatchNorm5"
  type: "BatchNorm"
  bottom: "Convolution4"
  top: "BatchNorm5"
  batch_norm_param {
    use_global_stats: false
  }
}
layer {
  name: "ReLU5"
  type: "ReLU"
  bottom: "BatchNorm5"
  top: "BatchNorm5"
  relu_param {
    engine: CAFFE
  }
}
layer {
  name: "conv3_b1_c2"
  type: "Convolution"
  bottom: "BatchNorm5"
  top: "Convolution5"
  convolution_param {
    num_output: 32
    pad: 1
    kernel_size: 3
    group: 1
    stride: 1
    weight_filler {
      type: "xavier"
    }
    engine: CAFFE
  }
}
layer {
  name: "conv3_b1_sum"
  type: "Eltwise"
  bottom: "Convolution3"
  bottom: "Convolution5"
  top: "conv3"
  eltwise_param {
    operation: SUM
  }
}
layer {
  name: "conv4_shortcut"
  type: "Convolution"
  bottom: "conv3"
  top: "Convolution6"
  convolution_param {
    num_output: 64
    pad: 0
    kernel_size: 1
    group: 1
    stride: 2
    weight_filler {
      type: "xavier"
    }
    engine: CAFFE
  }
}
layer {
  name: "BatchNorm6"
  type: "BatchNorm"
  bottom: "conv3"
  top: "BatchNorm6"
  batch_norm_param {
    use_global_stats: false
  }
}
layer {
  name: "ReLU6"
  type: "ReLU"
  bottom: "BatchNorm6"
  top: "BatchNorm6"
  relu_param {
    engine: CAFFE
  }
}
layer {
  name: "conv4_b1_c1"
  type: "Convolution"
  bottom: "BatchNorm6"
  top: "Convolution7"
  convolution_param {
    num_output: 64
    pad: 1
    kernel_size: 3
    group: 1
    stride: 2
    weight_filler {
      type: "xavier"
    }
    engine: CAFFE
  }
}
layer {
  name: "BatchNorm7"
  type: "BatchNorm"
  bottom: "Convolution7"
  top: "BatchNorm7"
  batch_norm_param {
    use_global_stats: false
  }
}
layer {
  name: "ReLU7"
  type: "ReLU"
  bottom: "BatchNorm7"
  top: "BatchNorm7"
  relu_param {
    engine: CAFFE
  }
}
layer {
  name: "conv4_b1_c2"
  type: "Convolution"
  bottom: "BatchNorm7"
  top: "Convolution8"
  convolution_param {
    num_output: 64
    pad: 1
    kernel_size: 3
    group: 1
    stride: 1
    weight_filler {
      type: "xavier"
    }
    engine: CAFFE
  }
}
layer {
  name: "conv4_b1_sum"
  type: "Eltwise"
  bottom: "Convolution6"
  bottom: "Convolution8"
  top: "conv4"
  eltwise_param {
    operation: SUM
  }
}
layer {
  name: "BatchNorm8"
  type: "BatchNorm"
  bottom: "conv4"
  top: "BatchNorm8"
  batch_norm_param {
    use_global_stats: false
  }
}
layer {
  name: "ReLU8"
  type: "ReLU"
  bottom: "BatchNorm8"
  top: "BatchNorm8"
}
layer {
  name: "avg_pool"
  type: "Pooling"
  bottom: "BatchNorm8"
  top: "avg_pool"
  pooling_param {
    kernel_size: 8
    stride: 1
  }
}
layer {
  name: "fc"
  type: "InnerProduct"
  bottom: "avg_pool"
  top: "fc"
  inner_product_param {
    num_output: 51
    weight_filler {
      type: "xavier"
    }
  }
}
layer {
  name: "softmax"
  type: "Softmax"
  bottom: "fc"
  top: "softmax"
  softmax_param {
    engine: CAFFE
  }
}
layer {
  name: "loss"
  type: "MultinomialLogisticLoss"
  bottom: "softmax"
  bottom: "label"
  top: "loss"
}
layer {
  name: "accuracy_1"
  type: "Accuracy"
  bottom: "softmax"
  bottom: "label"
  top: "accuracy_1"
  accuracy_param {
    top_k: 1
  }
}
layer {
  name: "accuracy_5"
  type: "Accuracy"
  bottom: "softmax"
  bottom: "label"
  top: "accuracy_5"
  accuracy_param {
    top_k: 5
  }
}
I0801 14:28:24.366623 26497 layer_factory.hpp:77] Creating layer data
I0801 14:28:24.366642 26497 net.cpp:88] Creating Layer data
I0801 14:28:24.366648 26497 net.cpp:384] data -> data
I0801 14:28:24.366658 26497 net.cpp:384] data -> label
I0801 14:28:24.366668 26497 image_data_layer.cpp:38] Opening file ./Experiments/group_1/exp_3/gt_val.txt
I0801 14:28:24.367768 26497 image_data_layer.cpp:63] A total of 7677 images.
I0801 14:28:24.368034 26497 image_data_layer.cpp:90] output data size: 1024,3,32,32
I0801 14:28:24.422132 26497 net.cpp:126] Setting up data
I0801 14:28:24.422160 26497 net.cpp:133] Top shape: 1024 3 32 32 (3145728)
I0801 14:28:24.422166 26497 net.cpp:133] Top shape: 1024 (1024)
I0801 14:28:24.422170 26497 net.cpp:141] Memory required for data: 12587008
I0801 14:28:24.422178 26497 layer_factory.hpp:77] Creating layer label_data_1_split
I0801 14:28:24.422193 26497 net.cpp:88] Creating Layer label_data_1_split
I0801 14:28:24.422200 26497 net.cpp:410] label_data_1_split <- label
I0801 14:28:24.422209 26497 net.cpp:384] label_data_1_split -> label_data_1_split_0
I0801 14:28:24.422222 26497 net.cpp:384] label_data_1_split -> label_data_1_split_1
I0801 14:28:24.422231 26497 net.cpp:384] label_data_1_split -> label_data_1_split_2
I0801 14:28:24.422328 26497 net.cpp:126] Setting up label_data_1_split
I0801 14:28:24.422339 26497 net.cpp:133] Top shape: 1024 (1024)
I0801 14:28:24.422344 26497 net.cpp:133] Top shape: 1024 (1024)
I0801 14:28:24.422348 26497 net.cpp:133] Top shape: 1024 (1024)
I0801 14:28:24.422351 26497 net.cpp:141] Memory required for data: 12599296
I0801 14:28:24.422355 26497 layer_factory.hpp:77] Creating layer BatchNorm1
I0801 14:28:24.422365 26497 net.cpp:88] Creating Layer BatchNorm1
I0801 14:28:24.422371 26497 net.cpp:410] BatchNorm1 <- data
I0801 14:28:24.422379 26497 net.cpp:384] BatchNorm1 -> BatchNorm1
I0801 14:28:24.422709 26497 net.cpp:126] Setting up BatchNorm1
I0801 14:28:24.422724 26497 net.cpp:133] Top shape: 1024 3 32 32 (3145728)
I0801 14:28:24.422729 26497 net.cpp:141] Memory required for data: 25182208
I0801 14:28:24.422745 26497 layer_factory.hpp:77] Creating layer ReLU1
I0801 14:28:24.422756 26497 net.cpp:88] Creating Layer ReLU1
I0801 14:28:24.422762 26497 net.cpp:410] ReLU1 <- BatchNorm1
I0801 14:28:24.422768 26497 net.cpp:371] ReLU1 -> BatchNorm1 (in-place)
I0801 14:28:24.422778 26497 net.cpp:126] Setting up ReLU1
I0801 14:28:24.422785 26497 net.cpp:133] Top shape: 1024 3 32 32 (3145728)
I0801 14:28:24.422808 26497 net.cpp:141] Memory required for data: 37765120
I0801 14:28:24.422813 26497 layer_factory.hpp:77] Creating layer conv1
I0801 14:28:24.422827 26497 net.cpp:88] Creating Layer conv1
I0801 14:28:24.422832 26497 net.cpp:410] conv1 <- BatchNorm1
I0801 14:28:24.422839 26497 net.cpp:384] conv1 -> conv1
I0801 14:28:24.423123 26497 net.cpp:126] Setting up conv1
I0801 14:28:24.423136 26497 net.cpp:133] Top shape: 1024 16 32 32 (16777216)
I0801 14:28:24.423141 26497 net.cpp:141] Memory required for data: 104873984
I0801 14:28:24.423151 26497 layer_factory.hpp:77] Creating layer conv1_conv1_0_split
I0801 14:28:24.423159 26497 net.cpp:88] Creating Layer conv1_conv1_0_split
I0801 14:28:24.423166 26497 net.cpp:410] conv1_conv1_0_split <- conv1
I0801 14:28:24.423172 26497 net.cpp:384] conv1_conv1_0_split -> conv1_conv1_0_split_0
I0801 14:28:24.423182 26497 net.cpp:384] conv1_conv1_0_split -> conv1_conv1_0_split_1
I0801 14:28:24.423228 26497 net.cpp:126] Setting up conv1_conv1_0_split
I0801 14:28:24.423241 26497 net.cpp:133] Top shape: 1024 16 32 32 (16777216)
I0801 14:28:24.423246 26497 net.cpp:133] Top shape: 1024 16 32 32 (16777216)
I0801 14:28:24.423250 26497 net.cpp:141] Memory required for data: 239091712
I0801 14:28:24.423254 26497 layer_factory.hpp:77] Creating layer BatchNorm2
I0801 14:28:24.423260 26497 net.cpp:88] Creating Layer BatchNorm2
I0801 14:28:24.423267 26497 net.cpp:410] BatchNorm2 <- conv1_conv1_0_split_0
I0801 14:28:24.423274 26497 net.cpp:384] BatchNorm2 -> BatchNorm2
I0801 14:28:24.423491 26497 net.cpp:126] Setting up BatchNorm2
I0801 14:28:24.423502 26497 net.cpp:133] Top shape: 1024 16 32 32 (16777216)
I0801 14:28:24.423506 26497 net.cpp:141] Memory required for data: 306200576
I0801 14:28:24.423516 26497 layer_factory.hpp:77] Creating layer ReLU2
I0801 14:28:24.423524 26497 net.cpp:88] Creating Layer ReLU2
I0801 14:28:24.423530 26497 net.cpp:410] ReLU2 <- BatchNorm2
I0801 14:28:24.423537 26497 net.cpp:371] ReLU2 -> BatchNorm2 (in-place)
I0801 14:28:24.423543 26497 net.cpp:126] Setting up ReLU2
I0801 14:28:24.423550 26497 net.cpp:133] Top shape: 1024 16 32 32 (16777216)
I0801 14:28:24.423554 26497 net.cpp:141] Memory required for data: 373309440
I0801 14:28:24.423557 26497 layer_factory.hpp:77] Creating layer conv2_b1_c1
I0801 14:28:24.423568 26497 net.cpp:88] Creating Layer conv2_b1_c1
I0801 14:28:24.423573 26497 net.cpp:410] conv2_b1_c1 <- BatchNorm2
I0801 14:28:24.423578 26497 net.cpp:384] conv2_b1_c1 -> Convolution1
I0801 14:28:24.423868 26497 net.cpp:126] Setting up conv2_b1_c1
I0801 14:28:24.423880 26497 net.cpp:133] Top shape: 1024 16 32 32 (16777216)
I0801 14:28:24.423884 26497 net.cpp:141] Memory required for data: 440418304
I0801 14:28:24.423894 26497 layer_factory.hpp:77] Creating layer BatchNorm3
I0801 14:28:24.423900 26497 net.cpp:88] Creating Layer BatchNorm3
I0801 14:28:24.423905 26497 net.cpp:410] BatchNorm3 <- Convolution1
I0801 14:28:24.423912 26497 net.cpp:384] BatchNorm3 -> BatchNorm3
I0801 14:28:24.424127 26497 net.cpp:126] Setting up BatchNorm3
I0801 14:28:24.424139 26497 net.cpp:133] Top shape: 1024 16 32 32 (16777216)
I0801 14:28:24.424141 26497 net.cpp:141] Memory required for data: 507527168
I0801 14:28:24.424150 26497 layer_factory.hpp:77] Creating layer ReLU3
I0801 14:28:24.424157 26497 net.cpp:88] Creating Layer ReLU3
I0801 14:28:24.424162 26497 net.cpp:410] ReLU3 <- BatchNorm3
I0801 14:28:24.424168 26497 net.cpp:371] ReLU3 -> BatchNorm3 (in-place)
I0801 14:28:24.424178 26497 net.cpp:126] Setting up ReLU3
I0801 14:28:24.424183 26497 net.cpp:133] Top shape: 1024 16 32 32 (16777216)
I0801 14:28:24.424188 26497 net.cpp:141] Memory required for data: 574636032
I0801 14:28:24.424192 26497 layer_factory.hpp:77] Creating layer conv2_b1_c2
I0801 14:28:24.424199 26497 net.cpp:88] Creating Layer conv2_b1_c2
I0801 14:28:24.424206 26497 net.cpp:410] conv2_b1_c2 <- BatchNorm3
I0801 14:28:24.424211 26497 net.cpp:384] conv2_b1_c2 -> Convolution2
I0801 14:28:24.424479 26497 net.cpp:126] Setting up conv2_b1_c2
I0801 14:28:24.424490 26497 net.cpp:133] Top shape: 1024 16 32 32 (16777216)
I0801 14:28:24.424516 26497 net.cpp:141] Memory required for data: 641744896
I0801 14:28:24.424527 26497 layer_factory.hpp:77] Creating layer conv2_b1_sum
I0801 14:28:24.424535 26497 net.cpp:88] Creating Layer conv2_b1_sum
I0801 14:28:24.424542 26497 net.cpp:410] conv2_b1_sum <- conv1_conv1_0_split_1
I0801 14:28:24.424547 26497 net.cpp:410] conv2_b1_sum <- Convolution2
I0801 14:28:24.424553 26497 net.cpp:384] conv2_b1_sum -> conv2
I0801 14:28:24.424587 26497 net.cpp:126] Setting up conv2_b1_sum
I0801 14:28:24.424597 26497 net.cpp:133] Top shape: 1024 16 32 32 (16777216)
I0801 14:28:24.424600 26497 net.cpp:141] Memory required for data: 708853760
I0801 14:28:24.424607 26497 layer_factory.hpp:77] Creating layer conv2_conv2_b1_sum_0_split
I0801 14:28:24.424613 26497 net.cpp:88] Creating Layer conv2_conv2_b1_sum_0_split
I0801 14:28:24.424618 26497 net.cpp:410] conv2_conv2_b1_sum_0_split <- conv2
I0801 14:28:24.424625 26497 net.cpp:384] conv2_conv2_b1_sum_0_split -> conv2_conv2_b1_sum_0_split_0
I0801 14:28:24.424634 26497 net.cpp:384] conv2_conv2_b1_sum_0_split -> conv2_conv2_b1_sum_0_split_1
I0801 14:28:24.424677 26497 net.cpp:126] Setting up conv2_conv2_b1_sum_0_split
I0801 14:28:24.424686 26497 net.cpp:133] Top shape: 1024 16 32 32 (16777216)
I0801 14:28:24.424691 26497 net.cpp:133] Top shape: 1024 16 32 32 (16777216)
I0801 14:28:24.424695 26497 net.cpp:141] Memory required for data: 843071488
I0801 14:28:24.424698 26497 layer_factory.hpp:77] Creating layer conv3_shortcut
I0801 14:28:24.424708 26497 net.cpp:88] Creating Layer conv3_shortcut
I0801 14:28:24.424715 26497 net.cpp:410] conv3_shortcut <- conv2_conv2_b1_sum_0_split_0
I0801 14:28:24.424721 26497 net.cpp:384] conv3_shortcut -> Convolution3
I0801 14:28:24.425001 26497 net.cpp:126] Setting up conv3_shortcut
I0801 14:28:24.425014 26497 net.cpp:133] Top shape: 1024 32 16 16 (8388608)
I0801 14:28:24.425019 26497 net.cpp:141] Memory required for data: 876625920
I0801 14:28:24.425029 26497 layer_factory.hpp:77] Creating layer BatchNorm4
I0801 14:28:24.425040 26497 net.cpp:88] Creating Layer BatchNorm4
I0801 14:28:24.425045 26497 net.cpp:410] BatchNorm4 <- conv2_conv2_b1_sum_0_split_1
I0801 14:28:24.425052 26497 net.cpp:384] BatchNorm4 -> BatchNorm4
I0801 14:28:24.425266 26497 net.cpp:126] Setting up BatchNorm4
I0801 14:28:24.425276 26497 net.cpp:133] Top shape: 1024 16 32 32 (16777216)
I0801 14:28:24.425281 26497 net.cpp:141] Memory required for data: 943734784
I0801 14:28:24.425289 26497 layer_factory.hpp:77] Creating layer ReLU4
I0801 14:28:24.425300 26497 net.cpp:88] Creating Layer ReLU4
I0801 14:28:24.425307 26497 net.cpp:410] ReLU4 <- BatchNorm4
I0801 14:28:24.425312 26497 net.cpp:371] ReLU4 -> BatchNorm4 (in-place)
I0801 14:28:24.425321 26497 net.cpp:126] Setting up ReLU4
I0801 14:28:24.425329 26497 net.cpp:133] Top shape: 1024 16 32 32 (16777216)
I0801 14:28:24.425333 26497 net.cpp:141] Memory required for data: 1010843648
I0801 14:28:24.425336 26497 layer_factory.hpp:77] Creating layer conv3_b1_c1
I0801 14:28:24.425344 26497 net.cpp:88] Creating Layer conv3_b1_c1
I0801 14:28:24.425349 26497 net.cpp:410] conv3_b1_c1 <- BatchNorm4
I0801 14:28:24.425356 26497 net.cpp:384] conv3_b1_c1 -> Convolution4
I0801 14:28:24.425647 26497 net.cpp:126] Setting up conv3_b1_c1
I0801 14:28:24.425658 26497 net.cpp:133] Top shape: 1024 32 16 16 (8388608)
I0801 14:28:24.425662 26497 net.cpp:141] Memory required for data: 1044398080
I0801 14:28:24.425669 26497 layer_factory.hpp:77] Creating layer BatchNorm5
I0801 14:28:24.425676 26497 net.cpp:88] Creating Layer BatchNorm5
I0801 14:28:24.425683 26497 net.cpp:410] BatchNorm5 <- Convolution4
I0801 14:28:24.425688 26497 net.cpp:384] BatchNorm5 -> BatchNorm5
I0801 14:28:24.425900 26497 net.cpp:126] Setting up BatchNorm5
I0801 14:28:24.425911 26497 net.cpp:133] Top shape: 1024 32 16 16 (8388608)
I0801 14:28:24.425915 26497 net.cpp:141] Memory required for data: 1077952512
I0801 14:28:24.425923 26497 layer_factory.hpp:77] Creating layer ReLU5
I0801 14:28:24.425930 26497 net.cpp:88] Creating Layer ReLU5
I0801 14:28:24.425948 26497 net.cpp:410] ReLU5 <- BatchNorm5
I0801 14:28:24.425956 26497 net.cpp:371] ReLU5 -> BatchNorm5 (in-place)
I0801 14:28:24.425963 26497 net.cpp:126] Setting up ReLU5
I0801 14:28:24.425969 26497 net.cpp:133] Top shape: 1024 32 16 16 (8388608)
I0801 14:28:24.425976 26497 net.cpp:141] Memory required for data: 1111506944
I0801 14:28:24.425978 26497 layer_factory.hpp:77] Creating layer conv3_b1_c2
I0801 14:28:24.425987 26497 net.cpp:88] Creating Layer conv3_b1_c2
I0801 14:28:24.425993 26497 net.cpp:410] conv3_b1_c2 <- BatchNorm5
I0801 14:28:24.425999 26497 net.cpp:384] conv3_b1_c2 -> Convolution5
I0801 14:28:24.426321 26497 net.cpp:126] Setting up conv3_b1_c2
I0801 14:28:24.426333 26497 net.cpp:133] Top shape: 1024 32 16 16 (8388608)
I0801 14:28:24.426337 26497 net.cpp:141] Memory required for data: 1145061376
I0801 14:28:24.426344 26497 layer_factory.hpp:77] Creating layer conv3_b1_sum
I0801 14:28:24.426350 26497 net.cpp:88] Creating Layer conv3_b1_sum
I0801 14:28:24.426358 26497 net.cpp:410] conv3_b1_sum <- Convolution3
I0801 14:28:24.426363 26497 net.cpp:410] conv3_b1_sum <- Convolution5
I0801 14:28:24.426369 26497 net.cpp:384] conv3_b1_sum -> conv3
I0801 14:28:24.426393 26497 net.cpp:126] Setting up conv3_b1_sum
I0801 14:28:24.426403 26497 net.cpp:133] Top shape: 1024 32 16 16 (8388608)
I0801 14:28:24.426406 26497 net.cpp:141] Memory required for data: 1178615808
I0801 14:28:24.426410 26497 layer_factory.hpp:77] Creating layer conv3_conv3_b1_sum_0_split
I0801 14:28:24.426416 26497 net.cpp:88] Creating Layer conv3_conv3_b1_sum_0_split
I0801 14:28:24.426422 26497 net.cpp:410] conv3_conv3_b1_sum_0_split <- conv3
I0801 14:28:24.426429 26497 net.cpp:384] conv3_conv3_b1_sum_0_split -> conv3_conv3_b1_sum_0_split_0
I0801 14:28:24.426437 26497 net.cpp:384] conv3_conv3_b1_sum_0_split -> conv3_conv3_b1_sum_0_split_1
I0801 14:28:24.426478 26497 net.cpp:126] Setting up conv3_conv3_b1_sum_0_split
I0801 14:28:24.426487 26497 net.cpp:133] Top shape: 1024 32 16 16 (8388608)
I0801 14:28:24.426492 26497 net.cpp:133] Top shape: 1024 32 16 16 (8388608)
I0801 14:28:24.426496 26497 net.cpp:141] Memory required for data: 1245724672
I0801 14:28:24.426499 26497 layer_factory.hpp:77] Creating layer conv4_shortcut
I0801 14:28:24.426508 26497 net.cpp:88] Creating Layer conv4_shortcut
I0801 14:28:24.426514 26497 net.cpp:410] conv4_shortcut <- conv3_conv3_b1_sum_0_split_0
I0801 14:28:24.426522 26497 net.cpp:384] conv4_shortcut -> Convolution6
I0801 14:28:24.426789 26497 net.cpp:126] Setting up conv4_shortcut
I0801 14:28:24.426800 26497 net.cpp:133] Top shape: 1024 64 8 8 (4194304)
I0801 14:28:24.426805 26497 net.cpp:141] Memory required for data: 1262501888
I0801 14:28:24.426811 26497 layer_factory.hpp:77] Creating layer BatchNorm6
I0801 14:28:24.426820 26497 net.cpp:88] Creating Layer BatchNorm6
I0801 14:28:24.426826 26497 net.cpp:410] BatchNorm6 <- conv3_conv3_b1_sum_0_split_1
I0801 14:28:24.426832 26497 net.cpp:384] BatchNorm6 -> BatchNorm6
I0801 14:28:24.427048 26497 net.cpp:126] Setting up BatchNorm6
I0801 14:28:24.427059 26497 net.cpp:133] Top shape: 1024 32 16 16 (8388608)
I0801 14:28:24.427062 26497 net.cpp:141] Memory required for data: 1296056320
I0801 14:28:24.427072 26497 layer_factory.hpp:77] Creating layer ReLU6
I0801 14:28:24.427078 26497 net.cpp:88] Creating Layer ReLU6
I0801 14:28:24.427081 26497 net.cpp:410] ReLU6 <- BatchNorm6
I0801 14:28:24.427088 26497 net.cpp:371] ReLU6 -> BatchNorm6 (in-place)
I0801 14:28:24.427095 26497 net.cpp:126] Setting up ReLU6
I0801 14:28:24.427103 26497 net.cpp:133] Top shape: 1024 32 16 16 (8388608)
I0801 14:28:24.427108 26497 net.cpp:141] Memory required for data: 1329610752
I0801 14:28:24.427110 26497 layer_factory.hpp:77] Creating layer conv4_b1_c1
I0801 14:28:24.427117 26497 net.cpp:88] Creating Layer conv4_b1_c1
I0801 14:28:24.427124 26497 net.cpp:410] conv4_b1_c1 <- BatchNorm6
I0801 14:28:24.427161 26497 net.cpp:384] conv4_b1_c1 -> Convolution7
I0801 14:28:24.427559 26497 net.cpp:126] Setting up conv4_b1_c1
I0801 14:28:24.427572 26497 net.cpp:133] Top shape: 1024 64 8 8 (4194304)
I0801 14:28:24.427588 26497 net.cpp:141] Memory required for data: 1346387968
I0801 14:28:24.427600 26497 layer_factory.hpp:77] Creating layer BatchNorm7
I0801 14:28:24.427610 26497 net.cpp:88] Creating Layer BatchNorm7
I0801 14:28:24.427614 26497 net.cpp:410] BatchNorm7 <- Convolution7
I0801 14:28:24.427623 26497 net.cpp:384] BatchNorm7 -> BatchNorm7
I0801 14:28:24.427848 26497 net.cpp:126] Setting up BatchNorm7
I0801 14:28:24.427860 26497 net.cpp:133] Top shape: 1024 64 8 8 (4194304)
I0801 14:28:24.427862 26497 net.cpp:141] Memory required for data: 1363165184
I0801 14:28:24.427872 26497 layer_factory.hpp:77] Creating layer ReLU7
I0801 14:28:24.427881 26497 net.cpp:88] Creating Layer ReLU7
I0801 14:28:24.427886 26497 net.cpp:410] ReLU7 <- BatchNorm7
I0801 14:28:24.427891 26497 net.cpp:371] ReLU7 -> BatchNorm7 (in-place)
I0801 14:28:24.427896 26497 net.cpp:126] Setting up ReLU7
I0801 14:28:24.427904 26497 net.cpp:133] Top shape: 1024 64 8 8 (4194304)
I0801 14:28:24.427907 26497 net.cpp:141] Memory required for data: 1379942400
I0801 14:28:24.427911 26497 layer_factory.hpp:77] Creating layer conv4_b1_c2
I0801 14:28:24.427919 26497 net.cpp:88] Creating Layer conv4_b1_c2
I0801 14:28:24.427925 26497 net.cpp:410] conv4_b1_c2 <- BatchNorm7
I0801 14:28:24.427932 26497 net.cpp:384] conv4_b1_c2 -> Convolution8
I0801 14:28:24.428438 26497 net.cpp:126] Setting up conv4_b1_c2
I0801 14:28:24.428454 26497 net.cpp:133] Top shape: 1024 64 8 8 (4194304)
I0801 14:28:24.428457 26497 net.cpp:141] Memory required for data: 1396719616
I0801 14:28:24.428464 26497 layer_factory.hpp:77] Creating layer conv4_b1_sum
I0801 14:28:24.428472 26497 net.cpp:88] Creating Layer conv4_b1_sum
I0801 14:28:24.428475 26497 net.cpp:410] conv4_b1_sum <- Convolution6
I0801 14:28:24.428483 26497 net.cpp:410] conv4_b1_sum <- Convolution8
I0801 14:28:24.428489 26497 net.cpp:384] conv4_b1_sum -> conv4
I0801 14:28:24.428531 26497 net.cpp:126] Setting up conv4_b1_sum
I0801 14:28:24.428544 26497 net.cpp:133] Top shape: 1024 64 8 8 (4194304)
I0801 14:28:24.428546 26497 net.cpp:141] Memory required for data: 1413496832
I0801 14:28:24.428550 26497 layer_factory.hpp:77] Creating layer BatchNorm8
I0801 14:28:24.428556 26497 net.cpp:88] Creating Layer BatchNorm8
I0801 14:28:24.428561 26497 net.cpp:410] BatchNorm8 <- conv4
I0801 14:28:24.428567 26497 net.cpp:384] BatchNorm8 -> BatchNorm8
I0801 14:28:24.428788 26497 net.cpp:126] Setting up BatchNorm8
I0801 14:28:24.428798 26497 net.cpp:133] Top shape: 1024 64 8 8 (4194304)
I0801 14:28:24.428802 26497 net.cpp:141] Memory required for data: 1430274048
I0801 14:28:24.428812 26497 layer_factory.hpp:77] Creating layer ReLU8
I0801 14:28:24.428823 26497 net.cpp:88] Creating Layer ReLU8
I0801 14:28:24.428829 26497 net.cpp:410] ReLU8 <- BatchNorm8
I0801 14:28:24.428835 26497 net.cpp:371] ReLU8 -> BatchNorm8 (in-place)
I0801 14:28:24.428841 26497 net.cpp:126] Setting up ReLU8
I0801 14:28:24.428848 26497 net.cpp:133] Top shape: 1024 64 8 8 (4194304)
I0801 14:28:24.428882 26497 net.cpp:141] Memory required for data: 1447051264
I0801 14:28:24.428886 26497 layer_factory.hpp:77] Creating layer avg_pool
I0801 14:28:24.428894 26497 net.cpp:88] Creating Layer avg_pool
I0801 14:28:24.428897 26497 net.cpp:410] avg_pool <- BatchNorm8
I0801 14:28:24.428903 26497 net.cpp:384] avg_pool -> avg_pool
I0801 14:28:24.428954 26497 net.cpp:126] Setting up avg_pool
I0801 14:28:24.428966 26497 net.cpp:133] Top shape: 1024 64 1 1 (65536)
I0801 14:28:24.428969 26497 net.cpp:141] Memory required for data: 1447313408
I0801 14:28:24.428972 26497 layer_factory.hpp:77] Creating layer fc
I0801 14:28:24.428982 26497 net.cpp:88] Creating Layer fc
I0801 14:28:24.428987 26497 net.cpp:410] fc <- avg_pool
I0801 14:28:24.428993 26497 net.cpp:384] fc -> fc
I0801 14:28:24.429267 26497 net.cpp:126] Setting up fc
I0801 14:28:24.429281 26497 net.cpp:133] Top shape: 1024 51 (52224)
I0801 14:28:24.429301 26497 net.cpp:141] Memory required for data: 1447522304
I0801 14:28:24.429308 26497 layer_factory.hpp:77] Creating layer softmax
I0801 14:28:24.429318 26497 net.cpp:88] Creating Layer softmax
I0801 14:28:24.429337 26497 net.cpp:410] softmax <- fc
I0801 14:28:24.429345 26497 net.cpp:384] softmax -> softmax
I0801 14:28:24.429427 26497 net.cpp:126] Setting up softmax
I0801 14:28:24.429438 26497 net.cpp:133] Top shape: 1024 51 (52224)
I0801 14:28:24.429441 26497 net.cpp:141] Memory required for data: 1447731200
I0801 14:28:24.429445 26497 layer_factory.hpp:77] Creating layer softmax_softmax_0_split
I0801 14:28:24.429452 26497 net.cpp:88] Creating Layer softmax_softmax_0_split
I0801 14:28:24.429458 26497 net.cpp:410] softmax_softmax_0_split <- softmax
I0801 14:28:24.429466 26497 net.cpp:384] softmax_softmax_0_split -> softmax_softmax_0_split_0
I0801 14:28:24.429474 26497 net.cpp:384] softmax_softmax_0_split -> softmax_softmax_0_split_1
I0801 14:28:24.429483 26497 net.cpp:384] softmax_softmax_0_split -> softmax_softmax_0_split_2
I0801 14:28:24.429538 26497 net.cpp:126] Setting up softmax_softmax_0_split
I0801 14:28:24.429548 26497 net.cpp:133] Top shape: 1024 51 (52224)
I0801 14:28:24.429553 26497 net.cpp:133] Top shape: 1024 51 (52224)
I0801 14:28:24.429556 26497 net.cpp:133] Top shape: 1024 51 (52224)
I0801 14:28:24.429559 26497 net.cpp:141] Memory required for data: 1448357888
I0801 14:28:24.429563 26497 layer_factory.hpp:77] Creating layer loss
I0801 14:28:24.429570 26497 net.cpp:88] Creating Layer loss
I0801 14:28:24.429576 26497 net.cpp:410] loss <- softmax_softmax_0_split_0
I0801 14:28:24.429581 26497 net.cpp:410] loss <- label_data_1_split_0
I0801 14:28:24.429587 26497 net.cpp:384] loss -> loss
…
